…
1, 'ent_coef_optimizer': 'Adam (\nParameter Group 0\n    amsgrad: False\n    betas: (0.9, 0.999)\n    capturable: False\n    differentiable: False\n    eps: 1e-08\n    foreach: None\n    fused: None\n    lr: 0.0009740001000000001\n    maximize: False\n    weight_decay: 0\n)', 'lr_schedule': '<function linear_schedule.<locals>.func at 0x000002396C3C1550>', 'batch_norm_stats': '[]', 'batch_norm_stats_target': '[]', 'policy': 'SACPolicy(\n  (actor): Actor(\n    (features_extractor): FlattenExtractor(\n      (flatten): Flatten(start_dim=1, end_dim=-1)\n    )\n    (latent_pi): Sequential(\n      (0): Linear(in_features=26, out_features=64, bias=True)\n      (1): ReLU()\n      (2): Linear(in_features=64, out_features=64, bias=True)\n      (3): ReLU()\n    )\n    (mu): Linear(in_features=64, out_features=10, bias=True)\n    (log_std): Linear(in_features=64, out_features=10, bias=True)\n  )\n  (critic): ContinuousCritic(\n    (features_extractor): FlattenExtractor(\n      (flatten): Flatten(start_dim=1, end_dim=-1)\n    )\n    (qf0): Sequential(\n      (0): Linear(in_features=36, out_features=256, bias=True)\n      (1): ReLU()\n      (2): Linear(in_features=256, out_features=256, bias=True)\n      (3): ReLU()\n      (4): Linear(in_features=256, out_features=1, bias=True)\n    )\n    (qf1): Sequential(\n      (0): Linear(in_features=36, out_features=256, bias=True)\n      (1): ReLU()\n      (2): Linear(in_features=256, out_features=256, bias=True)\n      (3): ReLU()\n      (4): Linear(in_features=256, out_features=1, bias=True)\n    )\n  )\n  (critic_target): ContinuousCritic(\n    (features_extractor): FlattenExtractor(\n      (flatten): Flatten(start_dim=1, end_dim=-1)\n    )\n    (qf0): Sequential(\n      (0): Linear(in_features=36, out_features=256, bias=True)\n      (1): ReLU()\n      (2): Linear(in_features=256, out_features=256, bias=True)\n      (3): ReLU()\n      (4): Linear(in_features=256, out_features=1, bias=True)\n    )\n    (qf1): Sequential(\n      (0): Linear(in_features=36, out_features=256, bias=True)\n      (1): ReLU()\n      (2): Linear(in_features=256, out_features=256, bias=True)\n      (3): ReLU()\n      (4): Linear(in_features=256, out_features=1, bias=True)\n    )\n  )\n)', 'actor': 'Actor(\n  (features_extractor): FlattenExtractor(\n    (flatten): Flatten(start_dim=1, end_dim=-1)\n  )\n  (latent_pi): Sequential(\n    (0): Linear(in_features=26, out_features=64, bias=True)\n    (1): ReLU()\n    (2): Linear(in_features=64, out_features=64, bias=True)\n    (3): ReLU()\n  )\n  (mu): Linear(in_features=64, out_features=10, bias=True)\n  (log_std): Linear(in_features=64, out_features=10, bias=True)\n)', 'critic': 'ContinuousCritic(\n  (features_extractor): FlattenExtractor(\n    (flatten): Flatten(start_dim=1, end_dim=-1)\n  )\n  (qf0): Sequential(\n    (0): Linear(in_features=36, out_features=256, bias=True)\n    (1): ReLU()\n    (2): Linear(in_features=256, out_features=256, bias=True)\n    (3): ReLU()\n    (4): Linear(in_features=256, out_features=1, bias=True)\n  )\n  (qf1): Sequential(\n    (0): Linear(in_features=36, out_features=256, bias=True)\n    (1): ReLU()\n    (2): Linear(in_features=256, out_features=256, bias=True)\n    (3): ReLU()\n    (4): Linear(in_features=256, out_features=1, bias=True)\n  )\n)', 'critic_target': 'ContinuousCritic(\n  (features_extractor): FlattenExtractor(\n    (flatten): Flatten(start_dim=1, end_dim=-1)\n  )\n  (qf0): Sequential(\n    (0): Linear(in_features=36, out_features=256, bias=True)\n    (1): ReLU()\n    (2): Linear(in_features=256, out_features=256, bias=True)\n    (3): ReLU()\n    (4): Linear(in_features=256, out_features=1, bias=True)\n  )\n  (qf1): Sequential(\n    (0): Linear(in_features=36, out_features=256, bias=True)\n    (1): ReLU()\n    (2): Linear(in_features=256, out_features=256, bias=True)\n    (3): ReLU()\n    (4): Linear(in_features=256, out_features=1, bias=True)\n  )\n)', '_logger': '<stable_baselines3.common.logger.Logger object at 0x00000239BBAE44C0>'}
2024-04-11 18:31:52,675 INFO    MainThread:13008 [sb3.py:save_model():153] Saving model checkpoint to models5gdl/angleYXposZerror-transfer\model.zip
2024-04-11 18:38:24,393 INFO    MainThread:13008 [sb3.py:save_model():153] Saving model checkpoint to models5gdl/angleYXposZerror-transfer\model.zip
…
