…
terval': 1, 'ent_coef_optimizer': 'Adam (\nParameter Group 0\n    amsgrad: False\n    betas: (0.9, 0.999)\n    capturable: False\n    differentiable: False\n    eps: 1e-08\n    foreach: None\n    fused: None\n    lr: 0.0006320001\n    maximize: False\n    weight_decay: 0\n)', 'lr_schedule': '<function linear_schedule.<locals>.func at 0x000002D1F2CFF670>', 'batch_norm_stats': '[]', 'batch_norm_stats_target': '[]', 'policy': 'SACPolicy(\n  (actor): Actor(\n    (features_extractor): FlattenExtractor(\n      (flatten): Flatten(start_dim=1, end_dim=-1)\n    )\n    (latent_pi): Sequential(\n      (0): Linear(in_features=6, out_features=8, bias=True)\n      (1): ReLU()\n      (2): Linear(in_features=8, out_features=8, bias=True)\n      (3): ReLU()\n    )\n    (mu): Linear(in_features=8, out_features=2, bias=True)\n    (log_std): Linear(in_features=8, out_features=2, bias=True)\n  )\n  (critic): ContinuousCritic(\n    (features_extractor): FlattenExtractor(\n      (flatten): Flatten(start_dim=1, end_dim=-1)\n    )\n    (qf0): Sequential(\n      (0): Linear(in_features=8, out_features=256, bias=True)\n      (1): ReLU()\n      (2): Linear(in_features=256, out_features=256, bias=True)\n      (3): ReLU()\n      (4): Linear(in_features=256, out_features=1, bias=True)\n    )\n    (qf1): Sequential(\n      (0): Linear(in_features=8, out_features=256, bias=True)\n      (1): ReLU()\n      (2): Linear(in_features=256, out_features=256, bias=True)\n      (3): ReLU()\n      (4): Linear(in_features=256, out_features=1, bias=True)\n    )\n  )\n  (critic_target): ContinuousCritic(\n    (features_extractor): FlattenExtractor(\n      (flatten): Flatten(start_dim=1, end_dim=-1)\n    )\n    (qf0): Sequential(\n      (0): Linear(in_features=8, out_features=256, bias=True)\n      (1): ReLU()\n      (2): Linear(in_features=256, out_features=256, bias=True)\n      (3): ReLU()\n      (4): Linear(in_features=256, out_features=1, bias=True)\n    )\n    (qf1): Sequential(\n      (0): Linear(in_features=8, out_features=256, bias=True)\n      (1): ReLU()\n      (2): Linear(in_features=256, out_features=256, bias=True)\n      (3): ReLU()\n      (4): Linear(in_features=256, out_features=1, bias=True)\n    )\n  )\n)', 'actor': 'Actor(\n  (features_extractor): FlattenExtractor(\n    (flatten): Flatten(start_dim=1, end_dim=-1)\n  )\n  (latent_pi): Sequential(\n    (0): Linear(in_features=6, out_features=8, bias=True)\n    (1): ReLU()\n    (2): Linear(in_features=8, out_features=8, bias=True)\n    (3): ReLU()\n  )\n  (mu): Linear(in_features=8, out_features=2, bias=True)\n  (log_std): Linear(in_features=8, out_features=2, bias=True)\n)', 'critic': 'ContinuousCritic(\n  (features_extractor): FlattenExtractor(\n    (flatten): Flatten(start_dim=1, end_dim=-1)\n  )\n  (qf0): Sequential(\n    (0): Linear(in_features=8, out_features=256, bias=True)\n    (1): ReLU()\n    (2): Linear(in_features=256, out_features=256, bias=True)\n    (3): ReLU()\n    (4): Linear(in_features=256, out_features=1, bias=True)\n  )\n  (qf1): Sequential(\n    (0): Linear(in_features=8, out_features=256, bias=True)\n    (1): ReLU()\n    (2): Linear(in_features=256, out_features=256, bias=True)\n    (3): ReLU()\n    (4): Linear(in_features=256, out_features=1, bias=True)\n  )\n)', 'critic_target': 'ContinuousCritic(\n  (features_extractor): FlattenExtractor(\n    (flatten): Flatten(start_dim=1, end_dim=-1)\n  )\n  (qf0): Sequential(\n    (0): Linear(in_features=8, out_features=256, bias=True)\n    (1): ReLU()\n    (2): Linear(in_features=256, out_features=256, bias=True)\n    (3): ReLU()\n    (4): Linear(in_features=256, out_features=1, bias=True)\n  )\n  (qf1): Sequential(\n    (0): Linear(in_features=8, out_features=256, bias=True)\n    (1): ReLU()\n    (2): Linear(in_features=256, out_features=256, bias=True)\n    (3): ReLU()\n    (4): Linear(in_features=256, out_features=1, bias=True)\n  )\n)', '_logger': '<stable_baselines3.common.logger.Logger object at 0x000002D1EADC2880>'}
2024-01-25 13:20:36,888 INFO    MainThread:32336 [wandb_run.py:_tensorboard_callback():1396] tensorboard callback: 2gdl/SAC_46, True
2024-01-25 13:20:36,892 INFO    MainThread:32336 [wandb_watch.py:watch():51] Watching
2024-01-25 13:20:36,893 INFO    MainThread:32336 [wandb_run.py:_config_callback():1251] config_cb None None {}
…
