…
    start_time: 1703850836.2032
    t:
      1:
      - 1
      - 2
      - 3
      - 55
      2:
      - 1
      - 2
      - 3
      - 5
      - 53
      - 55
      3:
      - 1
      - 2
      - 3
      - 22
      - 23
      - 34
      - 35
      4: 3.9.13
      5: 0.14.0
      8:
      - 1
      - 3
      - 5
action_noise:
  desc: null
  value: None
action_space:
  desc: null
  value: Box(-100.0, 100.0, (2,), float32)
actor:
  desc: null
  value: "Actor(\n  (features_extractor): FlattenExtractor(\n    (flatten): Flatten(start_dim=1,\
    \ end_dim=-1)\n  )\n  (latent_pi): Sequential(\n    (0): Linear(in_features=4,\
    \ out_features=8, bias=True)\n    (1): ReLU()\n    (2): Linear(in_features=8,\
    \ out_features=8, bias=True)\n    (3): ReLU()\n  )\n  (mu): Linear(in_features=8,\
    \ out_features=2, bias=True)\n  (log_std): Linear(in_features=8, out_features=2,\
    \ bias=True)\n)"
algo:
  desc: null
  value: SAC
batch_norm_stats:
  desc: null
  value: '[]'
batch_norm_stats_target:
  desc: null
  value: '[]'
batch_size:
  desc: null
  value: 256
buffer_size:
  desc: null
  value: 1000000
critic:
  desc: null
  value: "ContinuousCritic(\n  (features_extractor): FlattenExtractor(\n    (flatten):\
    \ Flatten(start_dim=1, end_dim=-1)\n  )\n  (qf0): Sequential(\n    (0): Linear(in_features=6,\
    \ out_features=256, bias=True)\n    (1): ReLU()\n    (2): Linear(in_features=256,\
    \ out_features=256, bias=True)\n    (3): ReLU()\n    (4): Linear(in_features=256,\
    \ out_features=1, bias=True)\n  )\n  (qf1): Sequential(\n    (0): Linear(in_features=6,\
    \ out_features=256, bias=True)\n    (1): ReLU()\n    (2): Linear(in_features=256,\
    \ out_features=256, bias=True)\n    (3): ReLU()\n    (4): Linear(in_features=256,\
    \ out_features=1, bias=True)\n  )\n)"
critic_target:
  desc: null
  value: "ContinuousCritic(\n  (features_extractor): FlattenExtractor(\n    (flatten):\
    \ Flatten(start_dim=1, end_dim=-1)\n  )\n  (qf0): Sequential(\n    (0): Linear(in_features=6,\
    \ out_features=256, bias=True)\n    (1): ReLU()\n    (2): Linear(in_features=256,\
    \ out_features=256, bias=True)\n    (3): ReLU()\n    (4): Linear(in_features=256,\
    \ out_features=1, bias=True)\n  )\n  (qf1): Sequential(\n    (0): Linear(in_features=6,\
    \ out_features=256, bias=True)\n    (1): ReLU()\n    (2): Linear(in_features=256,\
    \ out_features=256, bias=True)\n    (3): ReLU()\n    (4): Linear(in_features=256,\
    \ out_features=1, bias=True)\n  )\n)"
device:
  desc: null
  value: cpu
ent_coef:
  desc: null
  value: auto
ent_coef_optimizer:
  desc: null
  value: "Adam (\nParameter Group 0\n    amsgrad: False\n    betas: (0.9, 0.999)\n\
    \    capturable: False\n    differentiable: False\n    eps: 1e-08\n    foreach:\
    \ None\n    fused: None\n    lr: 0.001\n    maximize: False\n    weight_decay:\
…
log_ent_coef:
  desc: null
  value: tensor([0.], requires_grad=True)
lr_schedule:
  desc: null
  value: <function linear_schedule.<locals>.func at 0x000002606079F550>
n_envs:
  desc: null
  value: 1
num_timesteps:
  desc: null
  value: 0
observation_space:
  desc: null
  value: Box([-10. -10. -45. -45.], [10. 10. 45. 45.], (4,), float32)
optimize_memory_usage:
  desc: null
  value: 'False'
policy:
  desc: null
  value: "SACPolicy(\n  (actor): Actor(\n    (features_extractor): FlattenExtractor(\n\
    \      (flatten): Flatten(start_dim=1, end_dim=-1)\n    )\n    (latent_pi): Sequential(\n\
    \      (0): Linear(in_features=4, out_features=8, bias=True)\n      (1): ReLU()\n\
    \      (2): Linear(in_features=8, out_features=8, bias=True)\n      (3): ReLU()\n\
    \    )\n    (mu): Linear(in_features=8, out_features=2, bias=True)\n    (log_std):\
    \ Linear(in_features=8, out_features=2, bias=True)\n  )\n  (critic): ContinuousCritic(\n\
    \    (features_extractor): FlattenExtractor(\n      (flatten): Flatten(start_dim=1,\
    \ end_dim=-1)\n    )\n    (qf0): Sequential(\n      (0): Linear(in_features=6,\
    \ out_features=256, bias=True)\n      (1): ReLU()\n      (2): Linear(in_features=256,\
    \ out_features=256, bias=True)\n      (3): ReLU()\n      (4): Linear(in_features=256,\
    \ out_features=1, bias=True)\n    )\n    (qf1): Sequential(\n      (0): Linear(in_features=6,\
    \ out_features=256, bias=True)\n      (1): ReLU()\n      (2): Linear(in_features=256,\
    \ out_features=256, bias=True)\n      (3): ReLU()\n      (4): Linear(in_features=256,\
    \ out_features=1, bias=True)\n    )\n  )\n  (critic_target): ContinuousCritic(\n\
    \    (features_extractor): FlattenExtractor(\n      (flatten): Flatten(start_dim=1,\
    \ end_dim=-1)\n    )\n    (qf0): Sequential(\n      (0): Linear(in_features=6,\
    \ out_features=256, bias=True)\n      (1): ReLU()\n      (2): Linear(in_features=256,\
    \ out_features=256, bias=True)\n      (3): ReLU()\n      (4): Linear(in_features=256,\
    \ out_features=1, bias=True)\n    )\n    (qf1): Sequential(\n      (0): Linear(in_features=6,\
    \ out_features=256, bias=True)\n      (1): ReLU()\n      (2): Linear(in_features=256,\
    \ out_features=256, bias=True)\n      (3): ReLU()\n      (4): Linear(in_features=256,\
    \ out_features=1, bias=True)\n    )\n  )\n)"
policy_class:
  desc: null
  value: <class 'stable_baselines3.sac.policies.SACPolicy'>
policy_kwargs:
  desc: null
  value: '{''net_arch'': {''pi'': [8, 8], ''qf'': [256, 256]}, ''use_sde'': False}'
replay_buffer:
  desc: null
  value: <stable_baselines3.common.buffers.ReplayBuffer object at 0x00000260646B8E50>
replay_buffer_class:
…
